model_quantized.tflite (tflite, 255384 bytes, 12 tensors)

sequential/conv2d/Conv2D/ReadVariableOp i1 [64, 3, 3, 3] scale=0.00085417955 zero_point=0
0	0x7a	0.10420991
1	0xac	-0.07175108
2	0xf0	-0.013666873
3	0xd4	-0.0375839
4	0x29	0.03502136
5	0xf1	-0.012812694
6	0xe5	-0.023062848
7	0x29	0.03502136
8	0x12	0.015375232
9	0xf1	-0.012812694
10	0xb9	-0.06064675
11	0x83	-0.106772445
12	0x76	0.10079319
13	0x18	0.02050031
14	0xda	-0.032458823
15	0xdc	-0.030750465
16	0xe7	-0.021354489
17	0xca	-0.046125695
18	0xa4	-0.07858452
19	0x4e	0.066626005
20	0xd1	-0.04014644
21	0xea	-0.01879195
22	0x23	0.029896284
23	0xe5	-0.023062848
24	0x0b	0.009395975
25	0xf5	-0.009395975
26	0xb3	-0.065771826
27	0x12	0.015375232
28	0x6e	0.09395975
29	0x92	-0.09395975
30	0x92	-0.09395975
31	0x29	0.03502136
32	0x29	0.03502136
33	0x36	0.046125695
34	0x0f	0.012812694
35	0xa9	-0.07431362
36	0x3b	0.050396595
37	0x18	0.02050031
38	0xde	-0.029042104
39	0xdc	-0.030750465
40	0xaa	-0.07345944
41	0xb4	-0.06491765
42	0x72	0.097376466
43	0x05	0.0042708977
44	0xa6	-0.07687616
45	0xf4	-0.010250155
46	0xbe	-0.05637585
47	0x31	0.0418548
48	0x27	0.033313002
49	0x06	0.0051250774
50	0xea	-0.01879195
51	0xe5	-0.023062848
52	0x2b	0.03672972
53	0x56	0.07345944
54	0x19	0.021354489
55	0xec	-0.01708359
56	0x21	0.028187925
57	0xc8	-0.047834054
58	0x94	-0.09225139
59	0x42	0.05637585
60	0x66	0.087126315
61	0x4e	0.066626005
62	0xe8	-0.02050031
63	0x2e	0.03929226
64	0xf6	-0.008541795
65	0xca	-0.046125695
66	0x4f	0.067480184
67	0xc6	-0.049542416
68	0x96	-0.09054303
69	0x37	0.046979874
70	0x47	0.06064675
71	0x9c	-0.085417956
72	0xff	-0.00085417955
73	0xe0	-0.027333746
74	0xb6	-0.06320929
75	0x3b	0.050396595
76	0x42	0.05637585
77	0xf8	-0.0068334364
78	0x2e	0.03929226
79	0x08	0.0068334364
80	0x3d	0.052104954
81	0x2e	0.03929226
82	0xae	-0.07004272
83	0x31	0.0418548
84	0x9e	-0.0837096
85	0xac	-0.07175108
86	0x49	0.06235511
87	0x09	0.007687616
88	0xcb	-0.045271516
89	0x56	0.07345944
90	0x3d	0.052104954
91	0xa5	-0.07773034
92	0x3f	0.053813312
93	0xd1	-0.04014644
94	0xc3	-0.052104954
95	0x01	0.00085417955
96	0xa9	-0.07431362
97	0x9d	-0.08456378
98	0xbf	-0.05552167
99	0x48	0.06150093
100	0xa2	-0.08029288
101	0x31	0.0418548
102	0xe2	-0.025625387
103	0xe1	-0.026479566
104	0x97	-0.08968885
105	0xa2	-0.08029288
106	0x11	0.014521052
107	0x1b	0.023062848
108	0xa5	-0.07773034
109	0xb6	-0.06320929
110	0x17	0.01964613
111	0x5c	0.07858452
112	0x68	0.08883467
113	0xf8	-0.0068334364
114	0x1f	0.026479566
115	0x17	0.01964613
116	0xd4	-0.0375839
117	0x6b	0.09139721
118	0x01	0.00085417955
119	0x16	0.01879195
120	0xa1	-0.08114706
121	0xca	-0.046125695
122	0xdc	-0.030750465
123	0xb9	-0.06064675
124	0x21	0.028187925
125	0x61	0.08285542
126	0xd1	-0.04014644
127	0x9f	-0.08285542
128	0x0f	0.012812694
129	0x92	-0.09395975
130	0x1c	0.023917027
131	0xff	-0.00085417955
132	0xb6	-0.06320929
133	0x3f	0.053813312
134	0x0f	0.012812694
135	0x0d	0.011104334
136	0x06	0.0051250774
137	0xe0	-0.027333746
138	0xbb	-0.058938388
139	0x21	0.028187925
140	0xc9	-0.046979874
141	0x59	0.07602198
142	0x41	0.05552167
143	0x53	0.0708969
144	0xce	-0.042708978
145	0x43	0.05723003
146	0xab	-0.07260526
147	0x92	-0.09395975
148	0xd7	-0.03502136
149	0x06	0.0051250774
150	0x45	0.058938388
151	0x41	0.05552167
152	0xce	-0.042708978
153	0xd6	-0.03587554
154	0x04	0.0034167182
155	0x38	0.047834054
156	0x57	0.07431362
157	0x5c	0.07858452
158	0x36	0.046125695
159	0xb7	-0.06235511
160	0x3a	0.049542416
161	0xd9	-0.033313002
162	0xa0	-0.08200124
163	0xe6	-0.022208668
164	0x1e	0.025625387
165	0xc4	-0.051250774
166	0x9e	-0.0837096
167	0x31	0.0418548
168	0xb7	-0.06235511
169	0xc1	-0.053813312
170	0x2b	0.03672972
171	0x9d	-0.08456378
172	0x9b	-0.086272135
173	0xac	-0.07175108
174	0x3f	0.053813312
175	0x13	0.016229412
176	0xa7	-0.07602198
177	0xdd	-0.029896284
178	0x1b	0.023062848
179	0xb2	-0.066626005
180	0xab	-0.07260526
181	0xa3	-0.0794387
182	0xc9	-0.046979874
183	0x9c	-0.085417956
184	0xbb	-0.058938388
185	0xdb	-0.031604644
186	0x54	0.07175108
187	0x37	0.046979874
188	0xb3	-0.065771826
189	0x19	0.021354489
190	0xd9	-0.033313002
191	0x0e	0.011958513
192	0xf8	-0.0068334364
193	0x30	0.04100062
194	0xc3	-0.052104954
195	0x96	-0.09054303
196	0x02	0.0017083591
197	0xd0	-0.04100062
198	0xb6	-0.06320929
199	0x8d	-0.098230645
200	0xb5	-0.06406347
201	0x98	-0.08883467
202	0x68	0.08883467
203	0x8c	-0.09908483
204	0xc1	-0.053813312
205	0x56	0.07345944
206	0xa3	-0.0794387
207	0x0e	0.011958513
208	0xf8	-0.0068334364
209	0x14	0.01708359
210	0x50	0.06833436
211	0x21	0.028187925
212	0x46	0.059792567
213	0xb0	-0.06833436
214	0xb3	-0.065771826
215	0x41	0.05552167
216	0x52	0.07004272
217	0x64	0.085417956
218	0xd1	-0.04014644
219	0x7c	0.105918266
220	0xc5	-0.050396595
221	0xcd	-0.043563157
222	0x2b	0.03672972
223	0x73	0.098230645
224	0x14	0.01708359
225	0xa4	-0.07858452
226	0xf3	-0.011104334
227	0xb1	-0.067480184
228	0xcb	-0.045271516
229	0x5a	0.07687616
230	0xdc	-0.030750465
231	0x46	0.059792567
232	0x63	0.08456378
233	0x3a	0.049542416
234	0xe2	-0.025625387
235	0xdd	-0.029896284
236	0x61	0.08285542
237	0xd9	-0.033313002
238	0x4c	0.06491765
239	0x38	0.047834054
240	0x22	0.029042104
241	0x05	0.0042708977
242	0xaf	-0.06918854
243	0x65	0.086272135
244	0x77	0.10164737
245	0xa7	-0.07602198
246	0x09	0.007687616
247	0x66	0.087126315
248	0x0a	0.008541795
249	0x25	0.031604644
250	0x10	0.013666873
251	0x6d	0.09310557
252	0xf7	-0.007687616
253	0x68	0.08883467
254	0x50	0.06833436
255	0xd9	-0.033313002

sequential/conv2d/Conv2D_bias f4 [64]
0	0x3c0ced67	0.008601523
1	0x39bd1a0b	0.00036068293
2	0xbc18bcf9	-0.009322398
3	0xbb9dcaad	-0.0048154206
4	0x3b7ddb9e	0.0038735638
5	0xbc12cfe4	-0.008960698
6	0xbc02778f	-0.007963075
7	0xbc01bb35	-0.007918169
8	0x3c0bef6a	0.0085409675
9	0x3bf82c67	0.0075736525
10	0xbaa8e75f	-0.0012886337
11	0x3b72ffd4	0.0037078755
12	0xbc65809b	-0.014007713
13	0xbbcea554	-0.0063063297
14	0xbc2d5b0a	-0.010580787
15	0x3bbfb46e	0.0058503663
16	0xbc1b31d5	-0.00947233
17	0xbbfd39b3	-0.0077278255
18	0x3bb9441a	0.0056538703
19	0xbbdf614e	-0.0068170195
20	0x3a51cce0	0.0008003246
21	0xbbdebda1	-0.006797508
22	0x3c11af2e	0.008891864
23	0xbbe1ac9c	-0.0068870317
24	0x3bbc7bbe	0.005752056
25	0xbb627851	-0.0034556577
26	0xbc211968	-0.0098327175
27	0xbbe0c92c	-0.006859919
28	0xbbcd5d25	-0.006267207
29	0x3b11b31f	0.0022232009
30	0x3c922ea9	0.017844515
31	0x3bb962ba	0.005657521
32	0xbbde8f95	-0.0067920187
33	0xbb7298c7	-0.0037017332
34	0xba90df07	-0.0011052795
35	0xbb405070	-0.002934482
36	0xbbd23295	-0.0064147213
37	0xbb7692c2	-0.0037624096
38	0x3c24a41b	0.010048891
39	0xbc22c723	-0.009935173
40	0xbba2e408	-0.004971031
41	0xb994b3d1	-0.00028362733
42	0x3c150b51	0.009096936
43	0xbb1d8009	-0.0024032614
44	0xbc2d2654	-0.01056822
45	0xbb7b6919	-0.0038362204
46	0xbc074547	-0.008256263
47	0xbada5efe	-0.001666039
48	0x3a64d2a6	0.0008728899
49	0xbc224b9e	-0.009905724
50	0xbc0d5a88	-0.008627541
51	0x3c006af9	0.007838004
52	0x3b7969ab	0.0038057368
53	0xb9d0f7fe	-0.0003985762
54	0xbc09ea02	-0.008417608
55	0xbba9ddaf	-0.0051838974
56	0xbc22b3c7	-0.009930558
57	0x3be2bcc5	0.0069194757
58	0xbbc0cc03	-0.005883695
59	0xbbd92de0	-0.006627783
60	0xbb6bd8a7	-0.003598729
61	0xbc096f7a	-0.0083883945
62	0xbc10ee59	-0.008845889
63	0xbb8084da	-0.003922087

sequential/conv2d_1/Conv2D/ReadVariableOp i1 [32, 3, 3, 64] scale=0.0007701325 zero_point=0
0	0x54	0.064691134
1	0x06	0.004620795
2	0x67	0.07932365
3	0x1a	0.020023447
4	0x44	0.052369013
5	0xc1	-0.04851835
6	0xf0	-0.01232212
7	0x24	0.02772477
8	0xda	-0.029265035
9	0xff	-0.0007701325
10	0x3b	0.04543782
11	0xce	-0.038506627
12	0x10	0.01232212
13	0x55	0.06546126
14	0x2e	0.035426095
15	0xee	-0.013862385
16	0xeb	-0.016172783
17	0xf3	-0.010011723
18	0x64	0.077013254
19	0x9b	-0.07778338
20	0xd8	-0.0308053
21	0x24	0.02772477
22	0x0f	0.011551987
23	0x05	0.0038506626
24	0x35	0.040817022
25	0xd7	-0.031575434
26	0x93	-0.08394445
27	0xa8	-0.06777166
28	0x1f	0.023874108
29	0x67	0.07932365
30	0xf1	-0.011551987
31	0xc9	-0.04235729
32	0xbc	-0.052369013
33	0x1f	0.023874108
34	0x27	0.030035168
35	0xba	-0.053909276
36	0x9f	-0.07470285
37	0x19	0.019253314
38	0xad	-0.063921
39	0x2c	0.03388583
40	0x6c	0.08317431
41	0xe3	-0.022333844
42	0xe9	-0.017713048
43	0xe3	-0.022333844
44	0x06	0.004620795
45	0x04	0.00308053
46	0x9a	-0.07855352
47	0x4a	0.056989808
48	0xbe	-0.050828747
49	0xa7	-0.068541795
50	0xda	-0.029265035
51	0x57	0.06700153
52	0x9f	-0.07470285
53	0x57	0.06700153
54	0x19	0.019253314
55	0x18	0.01848318
56	0xb1	-0.06084047
57	0x1a	0.020023447
58	0x53	0.063921
59	0xab	-0.06546126
60	0x03	0.0023103976
61	0xa5	-0.07008206
62	0x70	0.08625484
63	0x5b	0.07008206
64	0x63	0.07624312
65	0xad	-0.063921
66	0xb2	-0.060070336
67	0xb8	-0.05544954
68	0xc2	-0.047748215
69	0x69	0.080863915
70	0x61	0.07470285
71	0xcd	-0.03927676
72	0x4d	0.059300203
73	0xcd	-0.03927676
74	0x21	0.025414374
75	0x11	0.013092253
76	0xe1	-0.023874108
77	0xdb	-0.028494904
78	0x3d	0.046978083
79	0x41	0.050058614
80	0x63	0.07624312
81	0x33	0.03927676
82	0x25	0.028494904
83	0xd0	-0.03696636
84	0xf5	-0.008471457
85	0x63	0.07624312
86	0x30	0.03696636
87	0x4d	0.059300203
88	0x6c	0.08317431
89	0xdb	-0.028494904
90	0x5b	0.07008206
91	0xac	-0.064691134
92	0xd6	-0.032345567
93	0x4d	0.059300203
94	0xc2	-0.047748215
95	0x33	0.03927676
96	0x6e	0.08471458
97	0xce	-0.038506627
98	0xa6	-0.069311924
99	0x23	0.026954638
100	0x30	0.03696636
101	0x47	0.05467941
102	0xf5	-0.008471457
103	0x5d	0.07162233
104	0x19	0.019253314
105	0xce	-0.038506627
106	0x1d	0.022333844
107	0xf8	-0.00616106
108	0x30	0.03696636
109	0xdc	-0.02772477
110	0x53	0.063921
111	0xe2	-0.023103975
112	0x87	-0.093186036
113	0xec	-0.01540265
114	0x64	0.077013254
115	0x20	0.02464424
116	0x1c	0.02156371
117	0x11	0.013092253
118	0x18	0.01848318
119	0x6a	0.081634045
120	0xb3	-0.059300203
121	0x53	0.063921
122	0x60	0.07393272
123	0x28	0.0308053
124	0x3a	0.044667687
125	0xed	-0.0146325175
126	0xb8	-0.05544954
127	0x04	0.00308053
128	0xf1	-0.011551987
129	0x1a	0.020023447
130	0x1a	0.020023447
131	0xb6	-0.056989808
132	0x24	0.02772477
133	0xf0	-0.01232212
134	0xc4	-0.04620795
135	0xad	-0.063921
136	0x4d	0.059300203
137	0x06	0.004620795
138	0xd1	-0.036196228
139	0xd4	-0.03388583
140	0xfb	-0.0038506626
141	0x30	0.03696636
142	0xf7	-0.0069311927
143	0xc9	-0.04235729
144	0x53	0.063921
145	0xd7	-0.031575434
146	0xba	-0.053909276
147	0xe7	-0.019253314
148	0x46	0.053909276
149	0xe8	-0.01848318
150	0xa7	-0.068541795
151	0x9f	-0.07470285
152	0x48	0.05544954
153	0xf6	-0.007701325
154	0x27	0.030035168
155	0x0f	0.011551987
156	0x36	0.041587155
157	0xc9	-0.04235729
158	0xdb	-0.028494904
159	0x61	0.07470285
160	0xa6	-0.069311924
161	0xa9	-0.06700153
162	0x0c	0.00924159
163	0x3f	0.04851835
164	0xf8	-0.00616106
165	0xbb	-0.053139143
166	0xe4	-0.02156371
167	0x37	0.04235729
168	0xa1	-0.07316259
169	0x44	0.052369013
170	0x36	0.041587155
171	0x70	0.08625484
172	0x35	0.040817022
173	0x38	0.04312742
174	0xe2	-0.023103975
175	0xe1	-0.023874108
176	0xe6	-0.020023447
177	0xd2	-0.035426095
178	0xe6	-0.020023447
179	0xfc	-0.00308053
180	0x53	0.063921
181	0x43	0.05159888
182	0x9f	-0.07470285
183	0x21	0.025414374
184	0x2c	0.03388583
185	0xf3	-0.010011723
186	0x12	0.013862385
187	0x53	0.063921
188	0xba	-0.053909276
189	0xc2	-0.047748215
190	0x15	0.016172783
191	0xeb	-0.016172783
192	0x48	0.05544954
193	0x8f	-0.08702497
194	0xf7	-0.0069311927
195	0xfc	-0.00308053
196	0xf2	-0.010781855
197	0xeb	-0.016172783
198	0xe4	-0.02156371
199	0x4a	0.056989808
200	0xc7	-0.043897554
201	0x45	0.053139143
202	0x15	0.016172783
203	0xf3	-0.010011723
204	0xd4	-0.03388583
205	0xf8	-0.00616106
206	0x44	0.052369013
207	0xc0	-0.04928848
208	0x4e	0.060070336
209	0x1f	0.023874108
210	0x11	0.013092253
211	0xf1	-0.011551987
212	0x35	0.040817022
213	0xa6	-0.069311924
214	0x20	0.02464424
215	0xa5	-0.07008206
216	0x4a	0.056989808
217	0xb0	-0.0616106
218	0xdf	-0.025414374
219	0x46	0.053909276
220	0xcf	-0.037736494
221	0xea	-0.016942915
222	0x29	0.031575434
223	0x16	0.016942915
224	0x45	0.053139143
225	0xd8	-0.0308053
226	0x64	0.077013254
227	0x41	0.050058614
228	0x68	0.080093786
229	0x36	0.041587155
230	0x60	0.07393272
231	0x16	0.016942915
232	0xc7	-0.043897554
233	0xcf	-0.037736494
234	0xe8	-0.01848318
235	0xff	-0.0007701325
236	0x0c	0.00924159
237	0xa4	-0.07085219
238	0xb2	-0.060070336
239	0x01	0.0007701325
240	0x96	-0.081634045
241	0x0a	0.007701325
242	0xb1	-0.06084047
243	0x11	0.013092253
244	0x0d	0.010011723
245	0x63	0.07624312
246	0xfa	-0.004620795
247	0x03	0.0023103976
248	0xa6	-0.069311924
249	0xd0	-0.03696636
250	0x36	0.041587155
251	0xed	-0.0146325175
252	0x57	0.06700153
253	0x03	0.0023103976
254	0x15	0.016172783
255	0xcb	-0.040817022

sequential/conv2d_1/Conv2D_bias f4 [32]
0	0x3b53bd28	0.003230879
1	0xbc1b30cd	-0.009472084
2	0xbbeb84f6	-0.007187481
3	0xbc1a04ad	-0.009400529
4	0xbc33bd45	-0.010970418
5	0xbaba4e4a	-0.0014214006
6	0xbb8ece3e	-0.004358082
7	0xbbed731b	-0.0072463877
8	0xbbe3ade5	-0.00694822
9	0xbb3fccc6	-0.0029266342
10	0xbc382cae	-0.011241121
11	0xbbdcf1f7	-0.0067427116
12	0x3bf073ff	0.0073380466
13	0xbbfe39ba	-0.0077583464
14	0x3a2a83e8	0.0006504641
15	0xbaea1903	-0.0017860237
16	0x3a8262b4	0.0009947629
17	0xbc35810e	-0.011078132
18	0xbc1934f1	-0.009351001
19	0xbbcc0476	-0.0062261177
20	0xbc0210fb	-0.007938619
21	0xba9dc303	-0.0012036267
22	0xbbdb170b	-0.0066860965
23	0xbb84965b	-0.004046244
24	0xbb5e0088	-0.0033874828
25	0xbc06fb6a	-0.008238653
26	0xbb21ca6a	-0.0024687299
27	0xbba90bc8	-0.005158875
28	0x3c28ca38	0.010302119
29	0xbc0d8beb	-0.008639316
30	0xbc023de3	-0.007949325
31	0x3c18612e	0.009300513

sequential/conv2d_2/Conv2D/ReadVariableOp i1 [16, 3, 3, 32] scale=0.001038285 zero_point=0
0	0x4a	0.076833084
1	0xd9	-0.040493116
2	0x6d	0.11317306
3	0xcf	-0.05087596
4	0xa8	-0.09136908
5	0x4b	0.077871375
6	0x17	0.023880554
7	0x3e	0.06437367
8	0x30	0.04983768
9	0x5d	0.0965605
10	0xa8	-0.09136908
11	0x4c	0.07890966
12	0x9e	-0.10175192
13	0x40	0.06645024
14	0xb9	-0.073718235
15	0x2a	0.04360797
16	0x74	0.12044106
17	0x0a	0.01038285
18	0xa4	-0.09552222
19	0x02	0.00207657
20	0x3a	0.06022053
21	0x45	0.07164166
22	0x5e	0.09759879
23	0x53	0.086177655
24	0xe9	-0.023880554
25	0x1c	0.02907198
26	0x8d	-0.11940277
27	0xe1	-0.032186836
28	0x3f	0.065411955
29	0x3b	0.061258815
30	0xbd	-0.069565095
31	0xbf	-0.06748852
32	0x4d	0.07994794
33	0x11	0.017650845
34	0xcf	-0.05087596
35	0x64	0.1038285
36	0xe8	-0.02491884
37	0x08	0.00830628
38	0x6e	0.11421135
39	0x23	0.036339976
40	0xa2	-0.09759879
41	0x24	0.03737826
42	0x3b	0.061258815
43	0xc5	-0.061258815
44	0x5d	0.0965605
45	0xd5	-0.044646256
46	0x3c	0.0622971
47	0x04	0.00415314
48	0x4f	0.082024515
49	0x15	0.021803984
50	0xfc	-0.00415314
51	0x99	-0.106943354
52	0x48	0.07475652
53	0xa4	-0.09552222
54	0xb3	-0.07994794
55	0xb6	-0.076833084
56	0x32	0.05191425
57	0x3a	0.06022053
58	0xe0	-0.03322512
59	0xd7	-0.042569682
60	0x40	0.06645024
61	0x8a	-0.12251763
62	0xfa	-0.00622971
63	0xb0	-0.0830628
64	0x2e	0.04776111
65	0x4b	0.077871375
66	0xed	-0.019727414
67	0x90	-0.11628792
68	0xac	-0.08721594
69	0xc8	-0.05814396
70	0x05	0.005191425
71	0xf0	-0.01661256
72	0xe6	-0.02699541
73	0x29	0.042569682
74	0x62	0.10175192
75	0x06	0.00622971
76	0xb8	-0.07475652
77	0xd2	-0.04776111
78	0xd7	-0.042569682
79	0x98	-0.10798164
80	0xf8	-0.00830628
81	0x32	0.05191425
82	0x50	0.0830628
83	0x90	-0.11628792
84	0xc7	-0.05918224
85	0x1c	0.02907198
86	0x3c	0.0622971
87	0xb4	-0.07890966
88	0xab	-0.08825422
89	0x55	0.08825422
90	0x4a	0.076833084
91	0x1c	0.02907198
92	0x8d	-0.11940277
93	0x18	0.02491884
94	0xc1	-0.065411955
95	0xfb	-0.005191425
96	0xd8	-0.0415314
97	0xaa	-0.08929251
98	0x60	0.09967536
99	0x02	0.00207657
100	0xd6	-0.04360797
101	0x8c	-0.12044106
102	0xc5	-0.061258815
103	0x1a	0.02699541
104	0x1a	0.02699541
105	0x21	0.034263402
106	0x9c	-0.1038285
107	0xb4	-0.07890966
108	0x39	0.05918224
109	0x4d	0.07994794
110	0x9f	-0.10071364
111	0x2f	0.048799396
112	0xd2	-0.04776111
113	0x98	-0.10798164
114	0x63	0.102790214
115	0xc6	-0.06022053
116	0x9c	-0.1038285
117	0x64	0.1038285
118	0x0e	0.01453599
119	0xd1	-0.048799396
120	0xc8	-0.05814396
121	0x72	0.11836448
122	0xc6	-0.06022053
123	0x40	0.06645024
124	0xcf	-0.05087596
125	0x45	0.07164166
126	0x57	0.090330794
127	0x6a	0.1100582
128	0xdf	-0.034263402
129	0x9d	-0.102790214
130	0x0d	0.013497705
131	0x17	0.023880554
132	0xfe	-0.00207657
133	0xac	-0.08721594
134	0x13	0.019727414
135	0x56	0.08929251
136	0xae	-0.085139364
137	0x92	-0.11421135
138	0x97	-0.10901992
139	0xc5	-0.061258815
140	0x0d	0.013497705
141	0x36	0.05606739
142	0xd3	-0.046722822
143	0x58	0.09136908
144	0x9a	-0.10590507
145	0xdf	-0.034263402
146	0xe7	-0.025957124
147	0x47	0.073718235
148	0xf3	-0.013497705
149	0xca	-0.05606739
150	0x5b	0.094483934
151	0x94	-0.11213478
152	0xc1	-0.065411955
153	0xd4	-0.04568454
154	0xb5	-0.077871375
155	0x06	0.00622971
156	0x58	0.09136908
157	0xac	-0.08721594
158	0x30	0.04983768
159	0x21	0.034263402
160	0x34	0.05399082
161	0x51	0.08410108
162	0xad	-0.086177655
163	0x06	0.00622971
164	0xce	-0.05191425
165	0x6f	0.115249634
166	0xbe	-0.068526804
167	0xc7	-0.05918224
168	0xf0	-0.01661256
169	0x6a	0.1100582
170	0x3a	0.06022053
171	0xff	-0.001038285
172	0xba	-0.07267995
173	0x09	0.009344565
174	0x3d	0.06333538
175	0x03	0.003114855
176	0x2b	0.044646256
177	0x63	0.102790214
178	0x10	0.01661256
179	0x2d	0.046722822
180	0x9d	-0.102790214
181	0xdd	-0.036339976
182	0x39	0.05918224
183	0xad	-0.086177655
184	0xe0	-0.03322512
185	0xbd	-0.069565095
186	0x16	0.02284227
187	0x13	0.019727414
188	0xb4	-0.07890966
189	0x5b	0.094483934
190	0xc5	-0.061258815
191	0x6a	0.1100582
192	0xef	-0.017650845
193	0xcd	-0.052952535
194	0xc5	-0.061258815
195	0xd8	-0.0415314
196	0xa0	-0.09967536
197	0xe3	-0.030110264
198	0x96	-0.1100582
199	0xe0	-0.03322512
200	0xf9	-0.007267995
201	0x3a	0.06022053
202	0xd5	-0.044646256
203	0xd3	-0.046722822
204	0xf1	-0.015574275
205	0xa4	-0.09552222
206	0xd4	-0.04568454
207	0x53	0.086177655
208	0x15	0.021803984
209	0xa3	-0.0965605
210	0xf9	-0.007267995
211	0xd9	-0.040493116
212	0xfb	-0.005191425
213	0x09	0.009344565
214	0xd9	-0.040493116
215	0xc9	-0.057105675
216	0xa3	-0.0965605
217	0xae	-0.085139364
218	0xda	-0.03945483
219	0xd1	-0.048799396
220	0xdb	-0.038416542
221	0x46	0.07267995
222	0xe9	-0.023880554
223	0x3a	0.06022053
224	0x31	0.05087596
225	0xb0	-0.0830628
226	0x94	-0.11213478
227	0xfd	-0.003114855
228	0xe4	-0.02907198
229	0xdd	-0.036339976
230	0xe7	-0.025957124
231	0xef	-0.017650845
232	0xf1	-0.015574275
233	0x43	0.069565095
234	0x28	0.0415314
235	0xe4	-0.02907198
236	0xcc	-0.05399082
237	0x05	0.005191425
238	0x93	-0.11317306
239	0x30	0.04983768
240	0x0f	0.015574275
241	0xd0	-0.04983768
242	0xab	-0.08825422
243	0xe5	-0.028033694
244	0x9c	-0.1038285
245	0x19	0.025957124
246	0xa2	-0.09759879
247	0xf9	-0.007267995
248	0x42	0.068526804
249	0xe9	-0.023880554
250	0x03	0.003114855
251	0x54	0.08721594
252	0xc1	-0.065411955
253	0x62	0.10175192
254	0xdd	-0.036339976
255	0x21	0.034263402

sequential/conv2d_2/Conv2D_bias f4 [16]
0	0xbadfc44b	-0.001707205
1	0xbbf34f16	-0.0074251993
2	0xba7426e1	-0.0009313655
3	0xbc4a72dc	-0.012356486
4	0xbbf97cd7	-0.007613759
5	0xbb3b1717	-0.0028547698
6	0xba2dc193	-0.0006628271
7	0xbc1fb08d	-0.009746683
8	0xbc31efb0	-0.010860369
9	0xbc11e67a	-0.008905048
10	0xbbdb9c76	-0.006702001
11	0xbc008679	-0.007844561
12	0xbb7da760	-0.00387045
13	0xbbabc2fc	-0.00524175
14	0xbc010a65	-0.007876013
15	0xbc458355	-0.012055238

sequential/dense/MatMul/ReadVariableOp/transpose i1 [32, 7056] scale=0.0004193577 zero_point=0
0	0xc2	-0.026000177
1	0xc1	-0.026419535
2	0x16	0.00922587
3	0x26	0.015935592
4	0xec	-0.008387154
5	0x26	0.015935592
6	0x00	0.0
7	0x00	0.0
8	0xda	-0.015935592
9	0x41	0.02725825
10	0xdf	-0.013838804
11	0xad	-0.03480669
12	0x1d	0.012161373
13	0xdf	-0.013838804
14	0x13	0.007967796
15	0xd3	-0.018871097
16	0xed	-0.007967796
17	0x20	0.013419447
18	0x15	0.008806512
19	0x06	0.0025161463
20	0xb1	-0.03312926
21	0xe7	-0.010483943
22	0xf2	-0.0058710077
23	0xe1	-0.013000089
24	0x2c	0.01845174
25	0xe7	-0.010483943
26	0xc2	-0.026000177
27	0x2a	0.017613024
28	0xd0	-0.02012917
29	0xee	-0.007548439
30	0x13	0.007967796
31	0x27	0.01635495
32	0x3c	0.025161462
33	0xd5	-0.018032381
34	0x08	0.0033548616
35	0xe8	-0.010064585
36	0xd4	-0.01845174
37	0x2c	0.01845174
38	0xde	-0.014258162
39	0x13	0.007967796
40	0x05	0.0020967885
41	0xeb	-0.008806512
42	0xca	-0.022645315
43	0xf7	-0.0037742194
44	0xd3	-0.018871097
45	0x02	0.0008387154
46	0xc7	-0.023903389
47	0x21	0.013838804
48	0xf1	-0.0062903655
49	0x2e	0.019290455
50	0x42	0.027677609
51	0x3a	0.024322746
52	0x04	0.0016774308
53	0x08	0.0033548616
54	0xce	-0.020967886
55	0x12	0.007548439
56	0x05	0.0020967885
57	0xc9	-0.023064673
58	0x0b	0.004612935
59	0x32	0.020967886
60	0xf9	-0.0029355038
61	0x3f	0.026419535
62	0xc3	-0.02558082
63	0x1d	0.012161373
64	0x43	0.028096966
65	0x1c	0.011742015
66	0xff	-0.0004193577
67	0x35	0.02222596
68	0x25	0.0155162355
69	0x01	0.0004193577
70	0xfe	-0.0008387154
71	0xcf	-0.020548528
72	0x29	0.017193666
73	0xc5	-0.024742104
74	0xb2	-0.0327099
75	0x1f	0.013000089
76	0x13	0.007967796
77	0x31	0.020548528
78	0xce	-0.020967886
79	0x3c	0.025161462
80	0x05	0.0020967885
81	0xae	-0.03438733
82	0x42	0.027677609
83	0x20	0.013419447
84	0x22	0.014258162
85	0xc3	-0.02558082
86	0xfb	-0.0020967885
87	0xc1	-0.026419535
88	0x2a	0.017613024
89	0x0e	0.0058710077
90	0x19	0.010483943
91	0x20	0.013419447
92	0xb7	-0.030613113
93	0xcf	-0.020548528
94	0xb8	-0.030193755
95	0xde	-0.014258162
96	0xd7	-0.017193666
97	0xce	-0.020967886
98	0xd5	-0.018032381
99	0x14	0.008387154
100	0xb0	-0.033548616
101	0xbf	-0.02725825
102	0xe0	-0.013419447
103	0xee	-0.007548439
104	0x04	0.0016774308
105	0xc1	-0.026419535
106	0xde	-0.014258162
107	0x25	0.0155162355
108	0xd8	-0.016774308
109	0xcd	-0.021387244
110	0xf0	-0.0067097233
111	0x56	0.036064763
112	0xe7	-0.010483943
113	0x25	0.0155162355
114	0x0f	0.0062903655
115	0x1d	0.012161373
116	0x11	0.007129081
117	0xea	-0.00922587
118	0xb4	-0.031871185
119	0xf3	-0.0054516504
120	0x10	0.0067097233
121	0xfc	-0.0016774308
122	0xbf	-0.02725825
123	0x36	0.022645315
124	0xc2	-0.026000177
125	0xef	-0.007129081
126	0x2f	0.019709812
127	0x0b	0.004612935
128	0xda	-0.015935592
129	0xbd	-0.028096966
130	0x2d	0.018871097
131	0xd1	-0.019709812
132	0xdc	-0.015096878
133	0x05	0.0020967885
134	0xda	-0.015935592
135	0x17	0.009645227
136	0xec	-0.008387154
137	0x56	0.036064763
138	0xf3	-0.0054516504
139	0xdf	-0.013838804
140	0xad	-0.03480669
141	0x2f	0.019709812
142	0x08	0.0033548616
143	0x4f	0.03312926
144	0x18	0.010064585
145	0x07	0.0029355038
146	0x1f	0.013000089
147	0x2f	0.019709812
148	0x0c	0.0050322926
149	0x24	0.015096878
150	0x0b	0.004612935
151	0xee	-0.007548439
152	0x25	0.0155162355
153	0xbc	-0.028516324
154	0xf1	-0.0062903655
155	0xc0	-0.026838893
156	0xdc	-0.015096878
157	0xbf	-0.02725825
158	0x35	0.02222596
159	0x4b	0.03145183
160	0xea	-0.00922587
161	0x1e	0.012580731
162	0x40	0.026838893
163	0x29	0.017193666
164	0xda	-0.015935592
165	0x38	0.02348403
166	0x45	0.028935682
167	0xd8	-0.016774308
168	0xc0	-0.026838893
169	0x13	0.007967796
170	0x1f	0.013000089
171	0x2e	0.019290455
172	0x27	0.01635495
173	0xbc	-0.028516324
174	0xc9	-0.023064673
175	0x0c	0.0050322926
176	0xeb	-0.008806512
177	0x09	0.0037742194
178	0xdc	-0.015096878
179	0x2f	0.019709812
180	0xfe	-0.0008387154
181	0xf2	-0.0058710077
182	0xa1	-0.03983898
183	0xb3	-0.032290544
184	0xd9	-0.01635495
185	0x06	0.0025161463
186	0x1d	0.012161373
187	0xdb	-0.0155162355
188	0xf8	-0.0033548616
189	0x25	0.0155162355
190	0xd8	-0.016774308
191	0x41	0.02725825
192	0xdf	-0.013838804
193	0xce	-0.020967886
194	0xd3	-0.018871097
195	0x23	0.01467752
196	0xad	-0.03480669
197	0xcc	-0.021806601
198	0xcf	-0.020548528
199	0xc0	-0.026838893
200	0x0f	0.0062903655
201	0xd3	-0.018871097
202	0x37	0.023064673
203	0x47	0.029774398
204	0xf1	-0.0062903655
205	0xfd	-0.0012580731
206	0x36	0.022645315
207	0x12	0.007548439
208	0x03	0.0012580731
209	0x1e	0.012580731
210	0xbc	-0.028516324
211	0xfa	-0.0025161463
212	0xcb	-0.02222596
213	0xc2	-0.026000177
214	0x04	0.0016774308
215	0x29	0.017193666
216	0x30	0.02012917
217	0x1b	0.011322658
218	0x2a	0.017613024
219	0x0a	0.004193577
220	0xe1	-0.013000089
221	0xbe	-0.027677609
222	0xf7	-0.0037742194
223	0xbe	-0.027677609
224	0x3f	0.026419535
225	0xd6	-0.017613024
226	0xc0	-0.026838893
227	0x1e	0.012580731
228	0x0c	0.0050322926
229	0xcf	-0.020548528
230	0xfe	-0.0008387154
231	0x1b	0.011322658
232	0xcf	-0.020548528
233	0x44	0.028516324
234	0xe1	-0.013000089
235	0xe4	-0.011742015
236	0xb0	-0.033548616
237	0x07	0.0029355038
238	0xfb	-0.0020967885
239	0x29	0.017193666
240	0xd7	-0.017193666
241	0xf6	-0.004193577
242	0xec	-0.008387154
243	0x27	0.01635495
244	0x2a	0.017613024
245	0x10	0.0067097233
246	0x38	0.02348403
247	0x03	0.0012580731
248	0xdd	-0.01467752
249	0x3b	0.024742104
250	0xaf	-0.033967976
251	0xc9	-0.023064673
252	0xd1	-0.019709812
253	0x09	0.0037742194
254	0xc4	-0.025161462
255	0xbd	-0.028096966

sequential/dense/MatMul_bias f4 [32]
0	0xbb5d1107	-0.0033732073
1	0xbc4f7ffd	-0.012664792
2	0xbb815271	-0.0039465954
3	0xbb2e46a2	-0.0026592393
4	0xbb6cc3b7	-0.0036127397
5	0xbb883f91	-0.0041579683
6	0xbb8570bb	-0.0040722764
7	0xbc996577	-0.01872514
8	0xbc1735a1	-0.009229095
9	0xbc095fa8	-0.008384623
10	0xbb9b6fb0	-0.004743539
11	0xbb84abe2	-0.0040488103
12	0xbb891656	-0.004183571
13	0xbba667aa	-0.0050782757
14	0xbb04138c	-0.0020153252
15	0x3b1eb7be	0.0024218406
16	0xbc0e283a	-0.008676583
17	0xbbc99555	-0.006151835
18	0x391bf4b3	0.0001487311
19	0x3b0dc60d	0.002163294
20	0xbc46a077	-0.012123219
21	0xbb047641	-0.0020212086
22	0xbc0911bf	-0.008366047
23	0xbb0b289f	-0.002123393
24	0xbc2d35f1	-0.010571943
25	0xbc459464	-0.012059305
26	0xbbc24eaf	-0.00592979
27	0x3b36a17c	0.0027867248
28	0xbc22e883	-0.00994313
29	0x3c061d0d	0.008185637
30	0xbb62d632	-0.0034612534
31	0xbb422198	-0.0029622074

sequential/dense_1/MatMul/ReadVariableOp/transpose f4 [8, 32]
0	0xbc9df38c	-0.019281171
1	0xbec278d1	-0.379828
2	0x3e7a2b04	0.24430472
3	0x3e4f20c1	0.20227338
4	0xbe62f9a3	-0.22165541
5	0x3e8a3a8e	0.269978
6	0x3dcf8dae	0.10134445
7	0xbe1ce6c2	-0.15322402
8	0xbe6f28f0	-0.2335546
9	0x3e145cc0	0.14488506
10	0x3c425110	0.011860147
11	0xbe405a1f	-0.18784378
12	0xbe416a84	-0.18888289
13	0xbba1adf0	-0.004934065
14	0x3e96c88b	0.29449877
15	0xbe735fc6	-0.23767003
16	0x3e7b95d1	0.24568869
17	0x3dadcd3f	0.08486413
18	0xbcf36ad3	-0.029714024
19	0x3e0f9a7e	0.14023778
20	0x3e6cae42	0.23113349
21	0x3e053435	0.13008197
22	0xbe38b391	-0.18037249
23	0xbea6305b	-0.32458767
24	0xbd1a949d	-0.037739385
25	0x3e24533d	0.16047378
26	0xbd675fdf	-0.056487914
27	0xbd17b6a1	-0.037039403
28	0xbe8f978b	-0.28045306
29	0x3e006dee	0.12541935
30	0x3e643aba	0.22288027
31	0x3eb05f25	0.3444759
32	0x3e074ef0	0.13213706
33	0x3e346da4	0.1761995
34	0xbe93a59e	-0.28837293
35	0xbe0870b9	-0.1332425
36	0x3e40bc73	0.18821888
37	0xbe44ab08	-0.19205868
38	0x3c551344	0.013005082
39	0xbde8bccd	-0.11364136
40	0x3e87dcf3	0.26535758
41	0x3e5e765f	0.21724842
42	0x3e40bdc7	0.18822394
43	0xbea394f9	-0.31949595
44	0x3e956739	0.29180315
45	0xbd6e7bfa	-0.058223702
46	0xbe52aef0	-0.20574546
47	0xbe396ec0	-0.18108654
48	0x3eb304ed	0.34964696
49	0x3e405ce2	0.18785432
50	0x3e2b9979	0.16757764
51	0xbe624f18	-0.22100484
52	0xbd8d45f1	-0.06898106
53	0xbe630b8d	-0.22172375
54	0xbda87218	-0.08224887
55	0xbe806a52	-0.25081116
56	0xbdfbaff4	-0.1228942
57	0xbe9d62bf	-0.307394
58	0xbe94bc68	-0.29049993
59	0xbea32a13	-0.31868038
60	0x3d02e4ab	0.031956356
61	0xbdf2fb24	-0.118643075
62	0xbe595c43	-0.21226601
63	0x3e5aeb3c	0.21378797
64	0xbe4ec24e	-0.20191309
65	0xbea6679b	-0.3250092
66	0x3e84406b	0.25830397
67	0x3e925a56	0.28584546
68	0xbe522dd8	-0.205253
69	0xbe9f2fb9	-0.31091097
70	0x3ec2be91	0.38036016
71	0xbe94aa07	-0.2903597
72	0xbe679295	-0.2261451
73	0xbe827aa4	-0.25484192
74	0x3acf9f6c	0.0015840358
75	0x3e4f5b83	0.20249753
76	0x3de7d7dc	0.11320469
77	0xbea742de	-0.32668203
78	0x3d17d1c0	0.037065268
79	0x3c312bbf	0.010813653
80	0xbe0e96dd	-0.13924737
81	0x3e385045	0.1799937
82	0x3e35a470	0.17738509
83	0xbe604200	-0.21900177
84	0x3dfac82b	0.1224521
85	0xbe577a54	-0.21042758
86	0xbea60347	-0.32424375
87	0x3e9a8ee5	0.30187145
88	0xbd82cd3f	-0.06386804
89	0xbcc12a05	-0.023579607
90	0x3e491622	0.19637349
91	0x3e6f1f0c	0.23351687
92	0x3e57b2ba	0.21064273
93	0xbe6dd37d	-0.23225208
94	0xbc7bc4c1	-0.015366734
95	0x3ea8f35b	0.32998165
96	0xbe9421f4	-0.28932154
97	0xbc7a5446	-0.015278881
98	0x3e9396fe	0.28826135
99	0xbd5a4376	-0.053286992
100	0xbe082d36	-0.13298497
101	0x3d212bb3	0.039348315
102	0x3d915083	0.070954345
103	0xbda812fe	-0.082067475
104	0xbdcbff2f	-0.09960782
105	0x3e068d46	0.13139829
106	0xbdb916b9	-0.09037537
107	0xbd59c169	-0.053162966
108	0x3ebe3bef	0.371551
109	0x3db2251b	0.086984836
110	0x3e2b847c	0.16749758
111	0xbe574e90	-0.21026063
112	0x3e595c05	0.21226509
113	0x3e217c02	0.15769961
114	0x3e31b7c0	0.17355251
115	0xbe479eae	-0.19494125
116	0xbea33ef2	-0.3188396
117	0x3d18ab8f	0.037272986
118	0x3e9ab391	0.30215123
119	0x3e32b040	0.17450047
120	0x3e58945d	0.21150346
121	0x3e061e96	0.13097605
122	0xbe3798a0	-0.17929316
123	0xbcb7f4f0	-0.022455662
124	0xbd875f35	-0.06609956
125	0x3af1bacb	0.001844251
126	0xbe4eb82e	-0.20187446
127	0xbe46b5a2	-0.19405225
128	0x3eb51e28	0.3537457
129	0xbda1651c	-0.07880613
130	0x3e317025	0.17327936
131	0x3ea479d0	0.32124186
132	0x3e5710a8	0.21002448
133	0xbe4d480b	-0.20047013
134	0xbe6daf04	-0.23211294
135	0xbeb9ee09	-0.3631442
136	0x3e7cf787	0.24703799
137	0xbd2224ed	-0.039585996
138	0xbead9c04	-0.33908093
139	0xbdf668c3	-0.120317005
140	0x3e2b37ef	0.16720556
141	0x3eb6c2f2	0.35695606
142	0xbeb19be7	-0.34689257
143	0xbdbc3a71	-0.09190834
144	0x3d827a89	0.06371028
145	0x3def45e6	0.11683254
146	0xbeb25b8b	-0.34835467
147	0x3eb8659a	0.36015016
148	0x3c04c7f5	0.008104314
149	0x3bfdcfbf	0.0077457125
150	0xbd56adcd	-0.052411843
151	0x3eb30252	0.34962708
152	0xbebecc5b	-0.37265286
153	0x3e41abb5	0.18913157
154	0x3ebc0aee	0.3672709
155	0xbd401434	-0.046894267
156	0xbd0bb1de	-0.034105174
157	0x3eaf68fa	0.34259778
158	0xbebebbb8	-0.37252593
159	0xbeb653a0	-0.35610676
160	0x3e0ff0f3	0.14056759
161	0xbe525b20	-0.20542574
162	0xbeaae8b3	-0.3338066
163	0x3ba3d335	0.004999543
164	0xbeaf4d24	-0.3423854
165	0xbe1d95f8	-0.1538924
166	0xbe73d1f0	-0.23810554
167	0x3dbfcfc4	0.093658
168	0x3e830694	0.25590956
169	0xbea428a8	-0.32062268
170	0x3e1e105d	0.1543593
171	0xbea943d2	-0.33059555
172	0xbb80a521	-0.003925935
173	0xbe6859dd	-0.2269053
174	0x3e7b0cf5	0.24516661
175	0xbe9ea0dd	-0.30982104
176	0xbec79730	-0.38982534
177	0x3ec2ff89	0.38085583
178	0x3df60309	0.12012298
179	0xbe77c010	-0.2419436
180	0xbec4fe94	-0.38475478
181	0xbc9d4d0a	-0.019201774
182	0xbe6f3041	-0.23358251
183	0xbea1e756	-0.31621808
184	0x3d9c608b	0.076356016
185	0xbebf51c5	-0.37367073
186	0x3e606651	0.2191403
187	0x3eae3c1f	0.34030244
188	0xbeb22a99	-0.34798124
189	0x3d4b4673	0.049627732
190	0xbe81409e	-0.25244612
191	0xbce3eb50	-0.027822167
192	0xbebfeea5	-0.3748676
193	0x3db46a8d	0.088093854
194	0x3dddcb33	0.10829773
195	0xbd28a4d1	-0.041172806
196	0x3eac4da8	0.33652997
197	0xbe59147a	-0.21199217
198	0xbec22090	-0.37915468
199	0x3e58c5b6	0.2116917
200	0xbdfede1e	-0.12444709
201	0xbe17f60e	-0.14839956
202	0xbdc89180	-0.09793377
203	0x3dc0c626	0.09412794
204	0xbea47942	-0.32123762
205	0x3ceb7879	0.02874397
206	0xbe31fc63	-0.17381434
207	0xbd556a42	-0.05210329
208	0x3e03add8	0.12859285
209	0xbeb12223	-0.34596357
210	0xbeaa289d	-0.3323411
211	0x3e3b2e5b	0.18279402
212	0x3eba0fdd	0.36340228
213	0xbdc9eded	-0.09859834
214	0x3eb315ba	0.34977514
215	0xbe96f00f	-0.29480025
216	0xbea5a933	-0.3235565
217	0x3e7d5a2c	0.24741429
218	0x3e6f83b6	0.23390087
219	0x3e2e74da	0.17036763
220	0xbe9bae27	-0.30406305
221	0xbe6f6d79	-0.23381604
222	0xbe3728c7	-0.17886649
223	0xbe5d3533	-0.21602325
224	0x3e5ab78c	0.2135908
225	0xbe297faf	-0.16552614
226	0xbd3100cb	-0.043213647
227	0x3e88517f	0.26624677
228	0xbe8bbc7e	-0.27292246
229	0xbe53fd29	-0.20702042
230	0xbd8b77a3	-0.06809928
231	0x3ec357e9	0.38153008
232	0xbe9d79bf	-0.30756947
233	0x3eb7e1b3	0.35914382
234	0xbea3e1f2	-0.3200832
235	0x3e795a07	0.24350749
236	0x3e30b9f9	0.17258443
237	0x3e09fabf	0.13474558
238	0xbe6987ac	-0.22805661
239	0xbe34a718	-0.17641866
240	0xbe8c9f24	-0.27465165
241	0x3e1588ee	0.14603016
242	0x3e6805c8	0.22658455
243	0xbcd87565	-0.026423166
244	0x3cbd9f18	0.02314715
245	0xbec27be0	-0.37985134
246	0xbc4e68dc	-0.012598243
247	0xbe7dddca	-0.24791637
248	0xbe1bbcd8	-0.15208757
249	0x3e66bef0	0.22533774
250	0x3e961782	0.2931481
251	0xbd897604	-0.06711963
252	0x3eb2eb76	0.34945267
253	0xbdca3eee	-0.09875284
254	0x3ec241a3	0.37940702
255	0xbc14c842	-0.009080948

sequential/dense_1/MatMul_bias f4 [8]
0	0xbc760816	-0.015016576
1	0xbbeb7922	-0.007186071
2	0xbc168cfc	-0.009188887
3	0xbbc27298	-0.005934071
4	0xbafcd989	-0.0019290905
5	0x3c94cd2f	0.018164245
6	0xbc0aad1d	-0.008464125
7	0xbc416c12	-0.011805551

sequential/dense_2/MatMul/ReadVariableOp/transpose f4 [2, 8]
0	0x3cce7675	0.02520297
1	0x3f248056	0.64258325
2	0xbf42b828	-0.7606225
3	0x3f3067f6	0.6890863
4	0xbe11decf	-0.14245151
5	0x3ef850e5	0.48499218
6	0xbd55dc34	-0.052211955
7	0xbedc2e8c	-0.43004262
8	0x3ec12992	0.37727028
9	0xbf099858	-0.53748083
10	0x3d01f220	0.03172505
11	0x3c6ec028	0.014572181
12	0xbec55875	-0.3854405
13	0x3f03c869	0.51477677
14	0xbf3b7ce1	-0.73237425
15	0x3f313224	0.69217134

sequential/dense_2/MatMul_bias f4 [2]
0	0x3c6f06d7	0.014589033
1	0xbc6f06d8	-0.014589034
